models/modelo_pesos.pth (torch, 631393 bytes, 14 tensors)

conv_layer_1.0.weight f4 [128, 3, 3, 3]
0.14725134 0.094864 -0.059464134 0.30181858 0.008516136 0.052095782 0.066875346 0.18773814
0.186475 -0.055815596 0.17991638 0.08170603 0.2830573 0.1026392 0.13083911 0.13031174
0.2300131 0.074407995 -0.058184385 0.04231608 -0.071599975 0.024679082 -0.060240604 0.12679332
-0.08427358 -0.051888283 -0.030040963 -0.165373 -0.0008649373 -0.23641773 0.15675107 -0.23756485
0.101718 0.0059011676 -0.06172758 0.19098417 0.009693575 0.15535335 -0.030214937 -0.04373666
-0.031349637 -0.0937707 0.06569325 0.15112408 0.17007929 -0.05887681 0.14761451 0.009551767
0.12310627 -0.17184979 -0.22482358 -0.088554725 -0.15466483 0.19287983 0.0415787 0.022351976
-0.02218104 0.047265124 0.1777107 -0.22072944 0.0539273 -0.04975479 0.039752435 -0.080363706
0.002762408 -0.117846824 0.21982442 -0.07632174 -0.21191902 -0.060308877 0.26491785 0.036326833
0.20001303 -0.18385214 -0.2206037 -0.05876981 -0.068946406 0.018659068 0.14953925 0.25442865
-0.11914969 -0.11261074 0.096170574 -0.10349885 0.11422045 -0.04935632 0.08455423 -0.1623486
-0.115952834 0.008338612 -0.038164265 -0.17071648 0.041032854 0.028228996 -0.26014957 -0.21687438
0.090586126 -0.19015726 -0.20743157 -0.17450361 -0.13762683 0.20388596 -0.0895591 -0.11911249
0.11649802 -0.085625626 -0.10294484 -0.083767235 -0.0743588 -0.03758196 0.27866235 0.1024283
0.12124189 -0.13452975 -0.103052974 -0.02883725 0.074636854 -0.20905519 -0.08223813 -0.07778971
-0.0811806 -0.11108997 -0.008313931 -0.3093632 -0.22032864 -0.11999892 -0.079175405 -0.13374412
0.22198325 -0.06147227 0.17792949 0.103522345 -0.20754114 0.13798569 -0.007723823 -0.04666878
-0.15793999 -0.24943636 0.120295435 -0.006827018 0.025455214 -0.085175894 0.18523799 -0.15951052
-0.026020473 0.0148501685 -0.004098419 0.20661214 0.19259918 -0.24365796 0.11035798 -0.06638362
-0.09930701 -0.15572295 0.1419562 -0.25093612 0.12682015 0.061068717 -0.041474234 -0.06352119
0.17292996 -0.05058211 0.098383866 -0.092050135 0.16306986 -0.013584926 -0.0922898 0.21270122
0.05523968 -0.11513329 -0.06956009 0.036786236 0.18396662 0.022116624 -0.13893496 -0.094202675
-0.1171893 0.040447306 0.1204502 -0.17221509 0.08606033 0.17201233 0.101327516 -0.0969683
0.0687723 0.12646951 0.05079295 -0.07073623 -0.054000817 0.017580498 -0.085214056 -0.13650541
0.12581691 0.20684138 -0.046033427 -0.11483255 -0.019327207 -0.007755332 0.08239909 0.039474666
-0.20845367 -0.026438441 0.25847283 0.094175756 -0.06346094 -0.092268474 -0.06660223 -0.11725475
-0.05721782 0.044208 0.16759904 0.1853524 -0.13699746 -0.1537445 -0.013034015 0.2259755
0.07252584 0.004992753 0.15249616 -0.06875657 -0.15980297 0.15530907 0.025212616 -0.010377564
-0.19183631 0.12873901 0.17575744 0.14662214 -0.18286248 -0.25754982 -0.15011694 0.22041604
0.091580436 0.13915561 0.12599243 0.11243525 0.115150325 -0.15228625 -0.1855617 -0.12274104
0.19826901 -0.041252848 -0.012614638 0.027405864 0.03559098 -0.18624324 -0.01799874 0.13525547
-0.086790055 0.19148462 0.035788927 -0.13503632 0.05256334 -0.096166216 -0.21107475 -0.11366917
00000000: 0ec9 163e 0f48 c23d aa90 73bd f787 9a3e
00000010: 4387 0b3c 6362 553d f1f5 883d 6d3e 403e
00000020: 4df3 3e3e e59e 64bd 003c 383e 7e55 a73d
00000030: e3ec 903e 8034 d23d b0fa 053e 7170 053e
00000040: 8e88 6b3e 3863 983d c052 6ebd a053 2d3d
00000050: 02a3 92bd c92b ca3c dabe 76bd 1cd6 013e
00000060: a097 acbd cf88 54bd 7718 f6bc 8a57 29be
00000070: f6bc 62ba 7d17 72be 5a83 203e 3344 73be
00000080: 8751 d03d 955e c13b 0fd6 7cbd 5b91 433e
00000090: cdd1 1e3c f314 1f3e 5185 f7bc 3625 33bd
000000a0: 7a68 00bd da0a c0bd 2f8a 863d 45c0 1a3e
000000b0: 4429 2e3e cf28 71bd 4228 173e 047f 1c3c
000000c0: 241f fc3d 64f9 2fbe 2738 66be 2e5c b5bd
000000d0: 7560 1ebe 4a82 453e 6d4e 2a3d 7e1b b73c
000000e0: 03b5 b5bc 1399 413d cbf9 353e e606 62be
000000f0: dfe2 5c3d aecb 4bbd 73d3 223d ba95 a4bd
00000100: 8409 353b ad59 f1bd a719 613e 934e 9cbd
00000110: 4d01 59be 7106 77bd 50a3 873e 72cb 143d
00000120: 37d0 4c3e bc43 3cbe f0e5 61be 9db8 70bd
00000130: c633 8dbd e7da 983c d120 193e 7944 823e
00000140: c104 f4bd 76a0 e6bd 14f5 c43d 34f7 d3bd
00000150: 69ec e93d da29 4abd c52a ad3d b63e 26be
00000160: ae78 edbd ac9e 083c 2252 1cbd 4dd0 2ebe
00000170: 1112 283d 7f40 e73c 5332 85be 5114 5ebe
00000180: 3885 b93d 96b8 42be f168 54be 13b1 32be
00000190: 0cee 0cbe 7bc7 503e c36a b7bd 40f1 f3bd
000001a0: 8496 ee3d 7d5c afbd bfd4 d2bd 288e abbd
000001b0: 6d49 98bd 8bef 19bd d5ac 8e3e eec5 d13d
000001c0: ab4d f83d 2bc2 09be 700d d3bd 193c ecbc
000001d0: 35db 983d 9012 56be 776c a8bd 3650 9fbd
000001e0: 0442 a6bd 2383 e3bd 2737 08bc da64 9ebe
000001f0: d59d 61be fec1 f5bd b726 a2bd 38f4 08be
00000200: 944f 633e 59ca 7bbd 2633 363e 8603 d43d
00000210: aa85 54be 1f4c 0d3e 2018 fdbb c327 3fbd
00000220: 05bb 21be 3f6c 7fbe 745d f63d 2eb5 dfbb
00000230: 7487 d03c b370 aebd 07af 3d3e ba56 23be
00000240: e328 d5bc 1f4e 733c 084c 86bb 2292 533e
00000250: b838 453e 7981 79be 5d03 e23d 23f4 87bd
00000260: 7961 cbbd d675 1fbe f75c 113e b37a 80be
00000270: 24dd 013e 3123 7a3d e3e0 29bd 6617 82bd
00000280: 8d14 313e 302f 4fbd 7b7d c93d c884 bcbd
00000290: c9fb 263e 4f93 5ebc 6f02 bdbd 59ce 593e
000002a0: 0143 623d 01cb ebbd 8575 8ebd 2aad 163d
000002b0: bf61 3c3e ec2d b53c f744 0ebe 55ed c0bd
000002c0: f200 f0bd 13ac 253d 98ae f63d 2759 30be
000002d0: 6640 b03d 0024 303e cd84 cf3d 5197 c6bd
000002e0: 7ed8 8c3d 3981 013e 450c 503d 28de 90bd
000002f0: f62f 5dbd fa04 903c b584 aebd 13c8 0bbe
00000300: 26d6 003e 3ace 533e 8c8d 3cbd 542d ebbd
00000310: 1754 9ebc 7120 febb dbc0 a83d 30b0 213d
00000320: e174 55be 6e95 d8bc 8d56 843e 38df c03d
00000330: cff7 81bd 41f7 bcbd c066 88bd 4223 f0bd
00000340: 3c5d 6abd 7313 353d 159f 2b3e 05cd 3d3e
00000350: 1049 0cbe 336f 1dbe 9f8c 55bc 1f66 673e
00000360: 6d88 943d 3f9a a33b f427 1c3e 3fd0 8cbd
00000370: 64a3 23be 5709 1f3e b08a ce3c a806 2abc
00000380: bd70 44be 29d4 033e c2f9 333e 1d24 163e
00000390: 4d40 3bbe 92dd 83be 41b8 19be beb4 613e
000003a0: 868e bb3d cf7e 0e3e 2904 013e 7444 e63d
000003b0: efd3 eb3d edf0 1bbe e303 3ebe a85f fbbd
000003c0: 0807 4b3e bff8 28bd a0ad 4ebc 4382 e03c
000003d0: d9c7 113d 8cb6 3ebe 1872 93bc 6980 0a3e
000003e0: fcbe b1bd 8b14 443e 6997 123d f646 0abe
000003f0: a84c 573d cbf2 c4bd fb23 58be 62cb e8bd

conv_layer_1.0.bias f4 [128]
-0.16953728 0.0077187745 -0.0064637866 -0.029015355 -0.11799266 0.006664862 0.25626734 0.22192386
0.3225659 -0.123460464 -0.27362856 -0.036355406 -0.110757105 0.10523177 0.0877871 0.013454969
-0.0752483 -0.11846634 0.26247925 0.23315294 -0.12915114 0.015378438 -0.22028206 0.044358417
0.17474462 -0.110203356 0.28055415 -0.21938495 0.2819553 0.045513865 0.21727555 -0.081644416
0.10761138 -0.16108148 -0.11684906 -0.17494927 0.23396514 -0.121965215 0.04424883 -0.24139915
0.08841102 -0.039747104 -0.27218944 0.062222544 -0.110869244 -0.06640324 -0.18418816 0.26713097
-0.27509245 0.037378848 0.053439774 -0.18201147 0.16337666 0.21610536 -0.16100553 0.014589998
0.047132056 0.12509096 0.1529965 -0.4308165 -0.1836852 -0.38201538 0.0032699704 -0.10452884
-0.062317397 0.08637596 -0.14324284 0.05245553 -0.18570141 -0.100641266 0.23913613 0.09040314
-0.08407476 -0.10755927 -0.11963354 -0.16215639 0.18012016 0.21311282 0.14513607 0.21911645
-0.20926113 -0.15632781 0.25509372 -0.2527079 0.10623059 -0.07720936 0.32773533 0.28285548
-0.07097317 -0.1520145 0.06602654 -0.18294328 0.105346486 -0.061311103 0.101005666 0.0027577973
-0.05266213 -0.029338032 -0.3695307 0.043398626 -0.22148551 0.081238344 -0.1539287 -0.012419462
0.27290297 0.2460428 0.25672337 0.31103832 -0.111209534 -0.17828989 -0.0421371 0.33485502
0.15775982 0.24127573 -0.17223307 -0.28134194 0.18792708 -0.19341932 -0.2331469 -0.022561578
-0.1399692 -0.09538536 0.18818228 0.17905018 -0.09719723 -0.2879892 0.26134327 0.3092821
00000000: 2e9b 2dbe c6ed fc3b 2cce d3bb 9cb1 edbc
00000010: 23a6 f1bd ea64 da3b 7935 833e 0240 633e
00000020: 5c27 a53e d7d8 fcbd 0b19 8cbe 68e9 14bd
00000030: 9fd4 e2bd c183 d73d b9c9 b33d 3b72 5c3c
00000040: c81b 9abd 7b9e f2bd ae63 863e a5bf 6e3e
00000050: 3240 04be d8f5 7b3c 9f91 61be 2cb1 353d
00000060: 41f0 323e 4cb2 e1bd cba4 8f3e 73a6 60be
00000070: 725c 903e bf6c 3a3d 7b7d 5e3e 3035 a7bd
00000080: 5b63 dc3d 8bf2 24be 8f4e efbd e725 33be
00000090: 8f94 6f3e e6c8 f9bd 433e 353d 5731 77be
000000a0: d610 b53d dccd 22bd 6a5c 8bbe 11dd 7e3d
000000b0: 6a0f e3bd 6cfe 87bd d29b 3cbe 64c5 883e
000000c0: ebd8 8cbe 901a 193d aae3 5a3d 3761 3abe
000000d0: 364c 273e b94a 5d3e a2de 24be e30a 6f3c
000000e0: 8b0d 413d d817 003e 1dab 1c3e fb93 dcbe
000000f0: f917 3cbe 8597 c3be 004d 563b 3713 d6bd
00000100: 8740 7fbd e1e5 b03d 40ae 12be 9cdb 563d
00000110: 8328 3ebe 021d cebd 1ae0 743e 4825 b93d
00000120: 632f acbd 0948 dcbd 6e02 f5bd 530c 26be
00000130: 6b71 383e 3f3a 5a3e 8d9e 143e 1060 603e
00000140: 8d48 56be 6614 20be a59b 823e ee62 81be
00000150: 6c8f d93d f11f 9ebd edcc a73e 6fd2 903e
00000160: 625a 91bd b0a9 1bbe ec38 873d 7c55 3bbe
00000170: e6bf d73d 5a21 7bbd 0fdc ce3d 29bc 343b
00000180: 3fb4 57bd 5056 f0bc 2133 bdbe c2c2 313d
00000190: 19cd 62be 4a60 a63d 7c9f 1dbe 007b 4bbc
000001a0: f0b9 8b3e a5f2 7b3e 3f71 833e 6a40 9f3e
000001b0: d3c1 e3bd a091 36be f497 2cbd 1e72 ab3e
000001c0: ca8b 213e fc10 773e de5d 30be 0d0c 90be
000001d0: f56f 403e b70f 46be 10be 6ebe 0fd3 b8bc
000001e0: 1654 0fbe 6659 c3bd dbb2 403e ee58 373e
000001f0: 570f c7bd 5273 93be c9ce 853e 395a 9e3e

conv_layer_1.2.weight f4 [128]
0.8118263 0.91929036 1.1865525 0.77567035 0.67978513 0.883441 0.7233798 1.065088
0.8511856 1.1181388 0.9288146 0.82239676 0.82885313 0.86584723 1.4899613 0.8574428
1.4458716 0.8907298 0.7334408 0.8261685 0.83286095 0.8549899 0.7254214 0.8740196
1.4539485 0.8589309 0.807591 0.69675267 0.7064621 1.299344 0.87082124 0.89566547
0.7757886 0.98627526 0.8632203 0.7942188 0.89609164 0.68452525 1.2190927 0.98876524
1.3384979 1.4858038 0.9469227 0.9609233 1.3664736 0.86805063 1.0244755 0.7808525
0.8424344 1.3682473 0.8758761 1.1050916 1.3068697 0.8597586 0.96710813 1.121773
0.74904704 1.4583535 1.0487522 0.86291426 0.8936357 0.8385593 1.5088987 0.6718995
0.7911639 1.4090874 1.1838787 1.2027816 1.0718322 0.7446118 0.85868084 0.7955858
1.3387043 1.0929807 0.7844902 1.0456942 1.039576 0.933739 0.7701004 0.92661977
0.95938385 1.0467324 0.83097285 0.68194205 1.1779028 0.7616133 1.1258906 1.0078244
0.867507 1.090728 1.267748 0.81499773 1.0955333 0.88267994 0.9002173 0.85161453
0.6574499 0.87062746 0.9145625 0.84033144 0.804407 0.8456478 0.9765737 0.70607483
1.3973151 1.0824691 0.8504153 1.082494 0.82369584 0.88779193 1.0935053 0.8000595
0.84745944 1.3391383 0.8904575 1.092298 0.8715051 0.8925021 0.87247074 1.0033982
0.85910517 0.90662 0.7287972 0.75278056 1.0432765 0.9567734 1.1942974 0.9329884
00000000: d9d3 4f3f 9d56 6b3f f4e0 973f 5592 463f
00000010: 6606 2e3f 3029 623f 6b2f 393f ce54 883f
00000020: 4de7 593f 2c1f 8f3f cbc6 6d3f 9888 523f
00000030: b82f 543f 2aa8 5d3f 0db7 be3f 5f81 5b3f
00000040: 5212 b93f de06 643f c7c2 3b3f c77f 533f
00000050: 6036 553f 9ee0 5a3f 38b5 393f c0bf 5f3f
00000060: fc1a ba3f e5e2 5b3f 49be 4e3f 625e 323f
00000070: b3da 343f e750 a63f 24ee 5e3f 554a 653f
00000080: 159a 463f 897c 7c3f 01fc 5c3f ec51 4b3f
00000090: 4366 653f 0c3d 2f3f 3b0b 9c3f b81f 7d3f
000000a0: e653 ab3f d22e be3f 8769 723f 12ff 753f
000000b0: 9be8 ae3f 9138 5e3f 0322 833f f3e5 473f
000000c0: c8a9 573f ba22 af3f 6b39 603f a473 8d3f
000000d0: 8247 a73f 2419 5c3f 6694 773f 4296 8f3f
000000e0: 8cc1 3f3f 54ab ba3f 833d 863f f3e7 5c3f
000000f0: 4fc5 643f d3ab 563f 9823 c13f 9b01 2c3f
00000100: b889 4a3f fa5c b43f 5689 973f bff4 993f
00000110: cc31 893f e19e 3e3f 82d2 5b3f 83ab 4b3f
00000120: aa5a ab3f cbe6 8b3f 5ad4 483f 4fd9 853f
00000130: d410 853f 8509 6f3f 4d25 453f f436 6d3f
00000140: 2e9a 753f 54fb 853f a3ba 543f c193 2e3f
00000150: 85c5 963f 17f9 423f 2f1d 903f 6400 813f
00000160: f014 5e3f fa9c 8b3f 9145 a23f b1a3 503f
00000170: 6f3a 8c3f 50f7 613f a474 663f 6903 5a3f
00000180: a34e 283f 71e1 5e3f c520 6a3f f61f 573f
00000190: 9eed 4d3f 607c 583f bc00 7a3f 52c1 343f
000001a0: 39db b23f 598e 8a3f d1b4 593f 2a8f 8a3f
000001b0: bbdd 523f 5546 633f fbf7 8b3f b3d0 4c3f
000001c0: 1af3 583f e268 ab3f 06f5 633f 6cd0 8b3f
000001d0: f51a 5f3f 057b 643f 3e5a 5f3f 5a6f 803f
000001e0: 51ee 5b3f 4018 683f 7492 3a3f 3ab6 403f
000001f0: 168a 853f 1aef 743f bdde 983f 54d8 6e3f

conv_layer_1.2.bias f4 [128]
0.16841176 0.054780718 0.15057065 0.07798455 -0.076688364 0.08638985 0.3229363 0.19054238
0.22163126 0.038787212 0.060835846 0.09758216 -0.010655162 0.058844086 -0.018395958 -0.30623537
0.080837265 -0.07932149 0.4662521 0.22650284 -0.023780013 0.27865767 -0.02828775 0.06423342
0.21001182 0.08745717 0.23524679 0.32055977 0.092137225 0.15223423 0.20873599 0.15794288
0.33543685 0.2030329 0.1048575 -0.010317936 0.2847779 0.22900923 -0.04695928 0.026351037
-0.070712075 -0.0006767038 0.13316965 0.1802105 -0.02490997 0.1758988 -0.08793805 0.23601145
0.09634562 0.08775253 0.10227009 -0.03234346 0.07708874 0.059972923 0.20521994 -0.0031985138
0.25781977 0.0449244 0.36831748 0.1763591 0.19125228 0.2692665 0.17135829 0.32715252
0.12586243 0.046189763 -0.1137848 0.03848354 0.30632985 0.4639856 -0.09718054 0.16711551
-0.043861605 -0.011872882 -0.0053317463 0.16953415 0.039227616 0.16609398 0.1692771 0.09247337
0.36519453 0.12245271 0.028029645 0.024123361 0.14126875 0.18805996 0.15321106 0.2500863
-0.23611061 -0.24728155 0.033425707 0.21221311 0.14054061 -0.031703886 -0.03397163 0.10090568
0.4118938 0.012391962 -0.057361394 -0.21087433 0.038385462 0.32574487 0.0123317065 0.23228444
0.20607811 0.18316735 0.24415876 0.30037013 0.2583065 0.28178257 0.1602924 0.21950983
-0.0100588035 0.18971574 0.14391647 0.17242517 -0.008918873 0.17988974 0.10189473 0.15014407
0.23824531 0.06261861 0.09933634 0.049901813 0.24391681 0.009259971 0.20362961 0.18689948
00000000: 2274 2c3e bf61 603d 312f 1a3e 5db6 9f3d
00000010: ca0e 9dbd 29ed b03d e857 a53e 8b1d 433e
00000020: 4ef3 623e 57df 1e3d 022f 793d 28d9 c73d
00000030: fd92 2ebc 7f06 713d 1fb3 96bc e2ca 9cbe
00000040: 028e a53d 4e73 a2bd 98b8 ee3e 5cf0 673e
00000050: 4dce c2bc 38ac 8e3e b6bb e7bc d08c 833d
00000060: 570d 573e bf1c b33d 89e4 703e 6920 a43e
00000070: 71b2 bc3d 4ae3 1b3e e3be 553e c7bb 213e
00000080: 61be ab3e dbe7 4f3e 87bf d63d 8f0c 29bc
00000090: 69ce 913e 6581 6a3e 6058 40bd 21de d73c
000000a0: 7ed1 90bd d364 31ba a05d 083e 1a89 383e
000000b0: fe0f ccbc d11e 343e dd18 b4bd fcac 713e
000000c0: da50 c53d 99b7 b33d fb72 d13d 937a 04bd
000000d0: b4e0 9d3d 2ba6 753d 2d25 523e 289e 51bb
000000e0: f400 843e a602 383d 1c94 bc3e 7b97 343e
000000f0: a3d7 433e 4cdd 893e 8c78 2f3e 8980 a73e
00000100: 15e2 003e 7a31 3d3d 0108 e9bd eba0 1d3d
00000110: 44d7 9c3e 858f ed3e 9706 c7bd 5420 2b3e
00000120: 3aa8 33bd 7a86 42bc eeb5 aebb 5c9a 2d3e
00000130: 23ad 203d 8a14 2a3e fa56 2d3e ae62 bd3d
00000140: c7fa ba3e 7dc8 fa3d 6d9e e53c 5b9e c53c
00000150: c1a8 103e ca92 403e 5ce3 1c3e 500b 803e
00000160: fbc6 71be 6037 7dbe 65e9 083d 654e 593e
00000170: e1e9 0f3e efdb 01bd d625 0bbd a3a7 ce3d
00000180: bfe3 d23e a807 4b3c c8f3 6abd 71ef 57be
00000190: 133a 1d3d 08c8 a63e ed0a 4a3c f9db 6d3e
000001a0: 2406 533e 3990 3b3e c104 7a3e 1dca 993e
000001b0: c040 843e ce45 903e b123 243e 2fc7 603e
000001c0: aecd 24bc d844 423e d75e 133e 3990 303e
000001d0: 7720 12bc 0435 383e 2fae d03d 5ebf 193e
000001e0: 94f6 733e 303e 803d da70 cb3d d865 4c3d
000001f0: 54c5 793e 22b7 173c 4884 503e 9462 3f3e

conv_layer_1.2.running_mean f4 [128]
0.8003579 0.10114833 0.10099974 0.8844802 0.4901615 0.2389095 0.35444984 0.24116851
0.350336 0.16862391 0.35106406 0.33759934 1.122647 0.32582182 0.1552874 0.34247255
0.10279157 0.367188 0.57728946 0.35020623 0.1772762 0.20738365 0.536641 1.0006491
0.20220041 0.7618288 0.40283588 0.17199135 0.402462 0.13684346 0.3487986 0.24912095
0.5124422 0.1308051 0.80980474 0.5269987 0.30659297 0.26158524 0.16144109 0.03064327
0.19390789 0.060070846 0.10805339 0.13337623 0.09394291 0.7641291 0.017227745 0.6062728
0.048843086 0.19195099 0.43510935 0.08284619 0.2669222 0.43333665 0.04300503 0.1526406
0.9095327 0.17536546 0.24678059 0.0054948623 0.11057558 0.09739124 0.14452846 0.56256497
0.8033317 0.1620267 0.100466855 0.21743625 0.111007065 0.55867696 1.0350633 0.4045634
0.07859012 0.05686372 0.9695614 0.11097695 0.25096175 0.27755523 0.89672595 0.2965547
0.031542767 0.16501129 0.3732318 0.6466783 0.24497724 0.22805564 0.40114564 0.32332504
0.10259026 0.21579665 0.16191408 0.13302423 0.1856907 1.0882225 0.36811322 0.1854707
0.43576205 0.2313514 0.09276853 0.96212184 0.6921098 0.35623738 0.14377047 0.10515794
0.32671005 0.2820058 0.30100524 0.3569731 0.41219455 0.13419133 0.10744866 0.4645058
0.63225985 0.28286415 0.037652183 0.023271253 0.5188439 0.10057499 0.80195165 0.12348606
0.21826695 0.5551266 0.49344224 0.44429675 0.0863469 0.028537536 0.33708027 0.33103463
00000000: 41e4 4c3f db26 cf3d f4d8 ce3d 4b6d 623f
00000010: 73f6 fa3e b1a4 743e 737a b53e e1f4 763e
00000020: 3d5f b33e bfab 2c3e abbe b33e d2d9 ac3e
00000030: e6b2 8f3f 1ed2 a63e a903 1f3e 9058 af3e
00000040: 6384 d23d 1100 bc3e 3ec9 133f 3b4e b33e
00000050: e487 353e 615c 543e 4e61 093f 4515 803f
00000060: a00d 4f3e 3607 433f 8140 ce3e 801e 303e
00000070: 800f ce3e b120 0c3e bb95 b23e 9019 7f3e
00000080: 692f 033f c6f1 053e 5d4f 4f3f 63e9 063f
00000090: c1f9 9c3e 80ee 853e d050 253e 9807 fb3c
000000a0: ca8f 463e d90c 763d 194b dd3d c793 083e
000000b0: 2465 c03d f79d 433f 3321 8d3c b234 1b3f
000000c0: b00f 483d cd8e 443e a7c6 de3e 43ab a93d
000000d0: 07aa 883e 4dde dd3e 0b26 303d d14d 1c3e
000000e0: 23d7 683f 0193 333e 0db4 7c3e 3f0e b43b
000000f0: 7375 e23d 0f75 c73d 45ff 133e 4204 103f
00000100: 25a7 4d3f 54ea 253e 91c1 cd3d 9ca7 5e3e
00000110: ac57 e33d 7405 0f3f f47c 843f ef22 cf3e
00000120: dbf3 a03d efe9 683d 2d35 783f e247 e33d
00000130: 0f7e 803e b81b 8e3e d58f 653f 05d6 973e
00000140: fd32 013d b8f8 283e 3d18 bf3e b68c 253f
00000150: 50db 7a3e 6b87 693e f662 cd3e dc8a a53e
00000160: d81a d23d ccf9 5c3e cecc 253e 8137 083e
00000170: b425 3e3e e04a 8b3f 5679 bc3e 08ec 3d3e
00000180: 341c df3e 62e7 6c3e 6dfd bd3d 9e4d 763f
00000190: 1c2e 313f bf64 b63e 9138 133e 0c5d d73d
000001a0: 8a46 a73e 1063 903e 5c1d 9a3e 2ec5 b63e
000001b0: 2a0b d33e 7469 093e 0b0e dc3d b4d3 ed3e
000001c0: c8db 213f 92d3 903e 2d39 1a3d 5ba3 be3c
000001d0: f4d2 043f 43fa cd3d b44c 4d3f 42e6 fc3d
000001e0: 5f81 5f3e c71c 0e3f 76a4 fc3e dd7a e33e
000001f0: a5d6 b03d 8dc7 e93c c995 ac3e 5f7d a93e

conv_layer_1.2.running_var f4 [128]
1.5148216 0.023887044 0.055466495 1.2053876 0.39586067 0.09604831 0.16563924 0.038519952
0.12581258 0.0802372 0.23873493 0.18429604 2.0373075 0.14098942 0.04201503 0.16916028
0.067702696 0.23723722 0.56420857 0.1806288 0.08468251 0.10055309 0.7486379 1.4922203
0.04845786 1.3832085 0.14232782 0.10389833 0.15144175 0.06540427 0.18797593 0.1620428
0.529171 0.06898807 1.0465456 0.48901212 0.08234715 0.1360378 0.08552526 0.018608222
0.08875029 0.022218425 0.04661934 0.057676606 0.06520525 1.3798174 0.008870491 0.6365291
0.011266241 0.111359164 0.39020717 0.065496415 0.11100084 0.18698537 0.022005444 0.0681935
1.6882839 0.06373795 0.08271784 0.0025708408 0.03664233 0.047863435 0.08892508 0.7245856
1.5091244 0.059388336 0.09230906 0.075413145 0.04856492 0.6977204 1.4122131 0.22592705
0.05273424 0.013456646 1.5381372 0.052616097 0.098699726 0.101244554 1.6895748 0.1438101
0.016413765 0.08065167 0.13496079 0.7593542 0.115271255 0.13185497 0.124605976 0.07643125
0.061048254 0.10669456 0.07377306 0.043762524 0.079050906 2.7081487 0.26024088 0.08626514
0.4329264 0.13847308 0.03552698 1.3995948 1.1876976 0.26559162 0.10248009 0.023359885
0.10570677 0.08336834 0.12402127 0.1258415 0.39276928 0.11966849 0.077518076 0.300129
0.5230442 0.09690123 0.015156409 0.012711258 0.31200564 0.038470432 1.631791 0.06404842
0.09827419 0.75061077 0.43163648 0.24524008 0.062211733 0.012724976 0.14445984 0.084636204
00000000: ade5 c13f c3ae c33c d630 633d 244a 9a3f
00000010: 40ae ca3e fab4 c43d 559d 293e 19c7 1d3d
00000020: 03d5 003e 6753 a43d ee76 743e 1ab8 3c3e
00000030: 3f63 0240 885f 103e f417 2c3d 5a38 2d3e
00000040: b6a7 8a3d 50ee 723e f96f 103f c2f6 383e
00000050: 066e ad3d c7ee cd3d bca6 3f3f 1301 bf3f
00000060: c07b 463d fa0c b13f 62be 113e a6c8 d43d
00000070: 8c13 1b3e adf2 853d c37c 403e 8cee 253e
00000080: c077 073f 9e49 8d3d 35f5 853f cc5f fa3e
00000090: 9fa5 a83d 7e4d 0b3e de27 af3d 4570 983c
000000a0: b6c2 b53d 6a03 b63c ecf3 3e3d 4e3e 6c3d
000000b0: 558a 853d db9d b03f 8955 113c 92f3 223f
000000c0: 0a96 383c 4610 e43d 3cc9 c73e fc22 863d
000000d0: 6954 e33d 1879 3f3e c344 b43c 09a9 8b3d
000000e0: b019 d83f 0b89 823d f967 a93d 8d7b 283b
000000f0: 4516 163d 730c 443d 5a1e b63d 717e 393f
00000100: fd2a c13f 2f41 733d 880c bd3d 3572 9a3d
00000110: 02ec 463d ce9d 323f 66c3 b43f 6c59 673e
00000120: dcff 573d 4479 5c3c aee1 c43f fa83 573d
00000130: 1523 ca3d 4e59 cf3d fd43 d83f f442 133e
00000140: 2976 863c b42c a53d 2933 0a3e 0965 423f
00000150: 5613 ec3d fd04 073e 6b31 ff3d fd87 9c3d
00000160: bc0d 7a3d ad82 da3d 5516 973d 5540 333d
00000170: 71e5 a13d 4f52 2d40 4b3e 853e c7ab b03d
00000180: 87a8 dd3e e3cb 0d3e bd84 113d ec25 b33f
00000190: 7a06 983f a0fb 873e 15e1 d13d 3b5d bf3c
000001a0: cb7c d83d 05bd aa3d ddfe fd3d 98dc 003e
000001b0: 0e19 c93e c114 f53d ccc1 9e3d 82aa 993e
000001c0: 3ae6 053f 2774 c63d 9652 783c e142 503c
000001d0: 34bf 9f3e 2c93 1d3d 87de d03f d12b 833d
000001e0: fb43 c93d 0728 403f 75ff dc3e 3720 7b3e
000001f0: bbd1 7e3d 6b7c 503c 48ed 133e bf55 ad3d

conv_layer_2.0.weight f4 [128, 128, 3, 3]
-0.040917262 -0.011800601 0.02980973 -0.0013963069 0.049949717 0.06746399 0.0769918 0.07142396
0.10006476 -0.025165653 -0.04400023 -0.05020614 -0.06116892 -0.027132927 -0.0591434 -0.077608466
0.00096492836 0.018111238 0.008453507 -0.05712183 -0.032713115 0.022381151 -0.01983661 -0.003266367
-0.008801157 0.024531344 -0.0043030563 0.0096612265 -0.030973759 0.077257454 0.0462328 -0.022780666
0.05408965 -0.0005050132 -0.044103216 0.08308808 0.022177162 0.0044505135 -0.0072069005 -0.056474507
-0.06108014 -0.086272895 -0.07890627 -0.09795848 -0.08763264 0.020760542 0.04185078 -0.05693077
0.03326325 0.035489712 0.056570504 0.038126905 0.08296084 0.07494603 0.04946525 0.024800308
0.036361564 -0.032262456 -0.076416425 -0.006812856 0.031106545 0.007828219 -0.037318144 0.012536231
-0.05764956 -0.040804625 -0.028461881 -0.07355664 -0.08851305 -0.06620145 -0.057299938 0.014741134
-0.02474108 -0.058170985 -0.021321952 -0.063795246 -0.03783781 -0.073987275 -0.06544201 -0.056431893
-0.071435906 -0.031455565 0.01184698 0.022978302 0.0873262 0.04040773 0.04993696 0.025790928
-0.0072502526 -0.01810391 -0.09062444 -0.09283654 0.038363837 -0.06892048 -0.05319732 0.065901384
-0.02364223 -0.061386816 0.05683278 -0.055774327 -0.026405154 0.017757347 0.046680015 0.08082731
0.11648313 -0.031858098 -0.0153597575 0.103213884 -0.04084861 -0.045138095 -0.019246941 0.013338425
-0.07574245 -0.053260356 -0.011697505 -0.025628854 0.008484359 0.0032681476 0.062416844 0.042646855
-0.04480026 -0.022433864 0.034428902 -0.117547415 -0.08731876 -0.06923436 0.061886348 0.014109186
-0.019085582 0.022020333 0.017178135 0.007587147 -0.010326241 -0.012302004 -0.012453184 0.05226835
0.004747915 -0.04843617 0.016792828 0.001967087 -0.036491062 -0.0071247257 -0.04287347 0.0026372115
-0.07316073 0.019964777 0.06863384 -0.049936574 -0.0116830645 -0.0083674425 -0.06257274 0.04312573
0.0027540328 0.015089836 -0.017034058 -0.033503924 -0.04181294 -0.035673235 -0.028550396 -0.057497624
-0.010185955 -0.08665068 -0.071734086 -0.043737575 0.036873963 -0.02145896 -0.043114483 -0.017381908
0.011884212 -0.014931812 0.027386816 0.063452385 0.06753085 0.06533828 0.111957796 0.07928239
0.051772412 0.013688269 0.027573138 0.031011008 -0.008671346 -0.029438851 0.03452786 -0.00033187066
0.051590465 0.0022623 0.037110314 0.11039961 0.06973554 0.045791157 -0.08778865 -0.02378513
0.028487405 -0.018260892 -0.056490555 -0.011868011 0.0098359985 -0.034217533 -0.026885496 -0.09194218
0.051140957 -0.006251181 -0.06128433 0.04539018 0.0052591623 -0.06374782 -0.0036388515 -0.043177687
-0.04787294 -0.03998664 -0.025312312 -0.077184565 0.021288611 -0.09603958 -0.010751185 -0.06607365
0.0032490634 -0.055532113 0.00065398053 -0.054869406 -0.024131047 -0.030988257 -0.07053331 -0.07133114
0.016173573 -0.0480058 -0.008375694 0.09591144 -0.0073640244 -0.0051852604 0.07444052 0.06848233
0.046213757 0.05734902 -0.048476033 -0.027855383 -0.0219091 -0.05475894 -0.0515237 -0.022339415
-0.016534673 0.007869703 -0.026878083 0.039458465 0.05449091 0.02356039 0.017870754 0.02809292
0.06528177 0.039849505 0.064010315 0.05894173 0.005749632 -0.045517605 -0.049910374 -0.057289373
00000000: dc98 27bd 4f57 41bc 8933 f43c 4904 b7ba
00000010: 1398 4c3d 8f2a 8a3d e0ad 9d3d ba46 923d
00000020: c1ee cc3d 3328 cebc 9639 34bd f4a4 4dbd
00000030: 438c 7abd df45 debc 5a40 72bd 30f1 9ebd
00000040: 3ff3 7c3a 055e 943c 9480 0a3c 94f8 69bd
00000050: 30fe 05bd ad58 b73c 6380 a2bc 8b10 56bb
00000060: ba32 10bc f5f5 c83c a700 8dbb 1f4a 1e3c
00000070: aebc fdbc 2839 9e3d 9b5e 3d3d 859e babc
00000080: 1c8d 5d3d dd62 04ba 93a5 34bd 152a aa3d
00000090: e1ac b53c 9dd5 913b dd27 ecbb d051 67bd
000000a0: 2b2f 7abd d8af b0bd 9c99 a1bd 759e c8bd
000000b0: be78 b3bd 0312 aa3c b96b 2b3d 3d30 69bd
000000c0: 0c3f 083d a95d 113d 79b6 673d f52a 1c3d
000000d0: 5fe7 a93d 4e7d 993d 139c 4a3d 042a cb3c
000000e0: ddef 143d a325 04bd 3780 9cbd 613e dfbb
000000f0: 27d3 fe3c ee41 003c e9da 18bd c464 4d3c
00000100: f221 6cbd c022 27bd e428 e9bc dda4 96bd
00000110: 5446 b5bd a094 87bd 57b3 6abd cc84 713c
00000120: cead cabc b344 6ebd 60ab aebc 15a7 82bd
00000130: d2fb 1abd a486 97bd 7606 86bd 2125 67bd
00000140: fd4c 92bd 8dd7 00bd d619 423c fe3c bc3c
00000150: 14d8 b23d 9382 253d b38a 4c3d 7f47 d33c
00000160: 8793 edbb a74e 94bc 4e99 b9bd 1521 bebd
00000170: 6623 1d3d 2e26 8dbd 6fe5 59bd 4ef7 863d
00000180: 5aad c1bc be70 7bbd 7dc9 683d 9f73 64bd
00000190: 9f4f d8bc db77 913c 8b33 3f3d ca88 a53d
000001a0: b58e ee3d a37d 02bd 7ea7 7bbc cd61 d33d
000001b0: df50 27bd b9e2 38bd c3ab 9dbc 6989 5a3c
000001c0: dc1e 9bbd 8827 5abd e4a6 3fbc 9af3 d1bc
000001d0: fb01 0b3c 6b2e 563b cea8 7f3d 78ae 2e3d
000001e0: 7a80 37bd 39c7 b7bc 5205 0d3d b3bc f0bd
000001f0: 2ed4 b2bd beca 8dbd 8a7c 7d3d 372a 673c
00000200: 5e59 9cbc fc63 b43c 29b9 8c3c 9a9d f83b
00000210: 652f 29bc 588e 49bc 7108 4cbc 5617 563d
00000220: 6694 9b3b 0165 46bd 1d91 893c 3eea 003b
00000230: a777 15bd 8876 e9bb 179c 2fbd 11d5 2c3b
00000240: 4bd5 95bd 2c8d a33c e68f 8c3d 4b8a 4cbd
00000250: 536a 3fbc 9917 09bc 2326 80bd 9ba4 303d
00000260: 017d 343b 5c3b 773c 028b 8bbc 693b 09bd
00000270: 0c44 2bbd 191e 12bd 85e2 e9bc a182 6bbd
00000280: fee2 26bc e975 b1bd 52e9 92bd 2c26 33bd
00000290: 2709 173d b3ca afbc d098 30bd 8164 8ebc
000002a0: ffb5 423c 8fa4 74bc 515a e03c 53f3 813d
000002b0: 9d4d 8a3d 13d0 853d 214a e53d ce5e a23d
000002c0: 4f0f 543d c344 603c 10e1 e13c cc0a fe3c
000002d0: 4312 0ebc bf29 f1bc 166d 0d3d edfe adb9
000002e0: 8650 533d 1943 143b fc00 183d 3119 e23d
000002f0: 82d1 8e3d 828f 3b3d 89ca b3bd 08d9 c2bc
00000300: 6b5e e93c de97 95bc a462 67bd 0c72 42bc
00000310: 2b27 213c af27 0cbd f93e dcbc 2f4c bcbd
00000320: 2e79 513d b5d6 ccbb 4705 7bbd 0eeb 393d
00000330: 0d55 ac3b 388e 82bd cc79 6ebb 16db 30bd
00000340: 6a16 44bd 08c9 23bd c45b cfbc f112 9ebd
00000350: 7465 ae3c 66b0 c4bd bd25 30bc 9f51 87bd
00000360: 3dee 543b a475 63bd e46f 2b3a bebe 60bd
00000370: 79ae c5bc 16db fdbc c573 90bd 1016 92bd
00000380: 717e 843c bba1 44bd 353a 09bc 386d c43d
00000390: ea4d f1bb 1ee9 a9bb 4574 983d 7740 8c3d
000003a0: a34a 3d3d cee6 6a3d ce8e 46bd f930 e4bc
000003b0: b67a b3bc e94a 60bd 840a 53bd 2601 b7bc
000003c0: b973 87bc edef 003c 6d2f dcbc 339f 213d
000003d0: dc31 5f3d b801 c13c b065 923c 2023 e63c
000003e0: 73b2 853d 3c39 233d d717 833d e26c 713d
000003f0: 6967 bc3b ab70 3abd d26e 4cbd 43a8 6abd

conv_layer_2.0.bias f4 [128]
0.014663426 -0.10859122 -0.0122810025 -0.13722362 -0.04896421 -0.019677246 -0.12057907 -0.00466943
-0.12249787 -0.046564333 -0.118556924 -0.11210541 -0.08607535 0.03700454 -0.043238677 -0.013374846
-0.08827131 -0.055658914 -0.256969 -0.12071457 -0.025198262 -0.0957415 -0.07188065 -0.14988251
0.028670238 0.0033507023 0.018837439 0.0077762906 -0.21701832 0.024683876 -0.12355519 -0.058365285
-0.068363994 0.011256192 -0.08134679 -0.12652199 -0.045846906 -0.090525836 -0.007458157 -0.13300245
-0.1300735 -0.047085613 -0.1971692 -0.13001856 -0.08367371 -0.030871743 -0.046696596 -0.053089216
-0.055737108 -0.03825595 -0.13639912 -0.087510064 -0.01714428 -0.117484935 -0.01173309 -0.15340503
0.0017407117 -0.008240151 -0.120603226 -0.14002796 -0.06384385 -0.042567063 -0.058945015 -0.0860673
-0.133653 -0.11625788 -0.07859623 0.082225606 -0.30279747 -0.120257355 -0.0017646533 -0.2400886
0.108630545 -0.2149675 -0.058570597 -0.11468743 -0.28567323 -0.13099645 -0.09282354 -0.08926229
-0.025450056 -0.14838752 0.092510074 -0.06629068 0.004456251 0.045896728 -0.050506752 -0.070084594
-0.2059494 -0.26464185 -0.07420448 -0.042812042 0.0065565608 -0.2922665 -0.14102238 -0.14121673
-0.030234843 -0.10827283 -0.1836048 -0.16985315 -0.21618968 -0.025283374 0.103035346 0.027410656
0.022036893 -0.068624444 -0.02965862 -0.020583833 -0.16934414 -0.19316924 -0.11598208 -0.05730657
0.03602901 -0.07196155 -0.057971332 -0.20161043 -0.0063684876 -0.064298965 -0.10718408 -0.36280298
-0.17019945 -0.14013994 -0.10390669 -0.110790074 -0.26058954 0.05903068 -0.06536901 -0.007541114
00000000: de3e 703c 1365 debd 4236 49bc 5984 0cbe
00000010: b28e 48bd 2d32 a1bc 29f2 f6bd 0502 99bb
00000020: 2ae0 fabd 3eba 3ebd f9cd f2bd 8597 e5bd
00000030: 4648 b0bd 1392 173d 0a1b 31bd 2c22 5bbc
00000040: 97c7 b4bd 9afa 63bd 7191 83be 3339 f7bd
00000050: 966c cebc 1f14 c4bd 2a36 93bd cd7a 19be
00000060: d9dd ea3c 7597 5b3b f950 9a3c 41d0 fe3b
00000070: 0d3a 5ebe d735 ca3c 810a fdbd 7010 6fbd
00000080: 6c02 8cbd e46b 383c 2599 a6bd fb8e 01be
00000090: f7c9 3bbd 9c65 b9bd 8e63 f4bb cb31 08be
000000a0: fd31 05be d8dc 40bd b9e6 49be 9623 05be
000000b0: 1f5d abbd bde6 fcbc ee44 3fbd 1474 59bd
000000c0: 984c 64bd 45b2 1cbd 36ac 0bbe 7a38 b3bd
000000d0: 2972 8cbc f19b f0bd 253c 40bc 3516 1dbe
000000e0: 9828 e43a b301 07bc d3fe f6bd 7d63 0fbe
000000f0: 90c0 82bd cd5a 2ebd 5470 71bd 0d44 b0bd
00000100: 55dc 08be 9d18 eebd 0ff7 a0bd e665 a83d
00000110: 4508 9bbe 7d49 f6bd f04b e7ba c9d9 75be
00000120: b179 de3d 7120 5cbe b9e7 6fbd 3ee1 eabd
00000130: c343 92be ef23 06be 451a bebd 26cf b6bd
00000140: a37c d0bc e6f2 17be ec75 bd3d 68c3 87bd
00000150: be05 923b 35fe 3b3d 2be0 4ebd 8388 8fbd
00000160: 66e4 52be 237f 87be 85f8 97bd ae5b 2fbd
00000170: 6bd8 d63b f4a3 95be 2c68 10be 1e9b 10be
00000180: 10af f7bc 25be ddbd e602 3cbe fced 2dbe
00000190: d460 5dbe 141f cfbc 3204 d33d 508c e03c
000001a0: b786 b43c f98a 8cbd a2f6 f2bc 6d9f a8bc
000001b0: 8d68 2dbe 28ce 45be 0388 edbd 4bba 6abd
000001c0: 2893 133d 9460 93bd 5973 6dbd f772 4ebe
000001d0: bfae d0bb 2daf 83bd 5483 dbbd 50c1 b9be
000001e0: c448 2ebe d880 0fbe 08cd d4bd e8e5 e2bd
000001f0: fe6b 85be 28ca 713d 30e0 85bd 731b f7bb

conv_layer_2.2.weight f4 [128]
0.57727903 0.5188514 0.6940732 0.6701257 0.5078401 0.59148955 0.62846714 0.6352075
0.6178421 0.69144523 0.6588091 0.65306354 0.5345365 0.7125367 0.41952384 0.56817734
0.60111475 0.762731 0.65642244 0.52312493 0.48018453 0.65623444 0.6062358 0.8081724
0.3546548 0.6133107 0.5613773 0.5047924 0.8530488 0.63945776 0.8608651 0.5942314
0.5235966 0.7019134 0.75974596 0.6895422 0.5738408 0.5995629 0.5277704 0.50639254
0.65960866 0.5505072 0.8277494 0.5205554 0.437223 0.68567115 0.6435005 0.6619341
0.45321795 0.6419037 0.7983089 0.7236471 0.54442424 0.8173985 0.687657 0.6972517
0.4254323 0.38033476 0.67440397 0.6312176 0.5967416 0.741407 0.56764406 0.51301193
0.7391119 0.6289104 0.60339165 0.46206716 0.589442 0.6366483 0.63123715 0.6994183
0.5578533 0.60635173 0.71105385 0.44922805 0.53938687 0.6347382 0.81042534 0.49056897
0.59419876 0.6669271 0.59946346 0.40601245 0.64999026 0.5570422 0.56981474 0.48707283
0.7672601 0.6432206 0.55704623 0.68256485 0.7051084 0.77516985 0.7414472 0.78693134
0.47152308 0.48642164 0.7748307 0.83135384 0.6112293 0.5337555 0.69289404 0.44256803
0.46511415 0.4879105 0.5310034 0.5480894 0.6776466 0.79336584 0.60989946 0.76920277
0.74641836 0.40192732 0.6066207 0.7530366 0.67955357 0.62379235 0.7491506 0.8196678
0.6008523 0.7569162 0.72246945 0.66609216 0.63021314 0.48415008 0.48325843 0.70139897
00000000: 8fc8 133f 72d3 043f c8ae 313f 5c8d 2b3f
00000010: cf01 023f dc6b 173f 39e3 203f f59c 223f
00000020: e62a 1e3f 8e02 313f b7a7 283f 2c2f 273f
00000030: 62d7 083f ce68 363f d4cb d63e 1274 113f
00000040: a8e2 193f 5742 433f 4d0b 283f 84eb 053f
00000050: bfda f53e fbfe 273f 4532 1b3f 63e4 4e3f
00000060: 5095 b53e ee01 1d3f 6cb6 0f3f 133a 013f
00000070: 6861 5a3f 81b3 233f a861 5c3f 8d1f 183f
00000080: 6d0a 063f 99b0 333f b67e 423f d685 303f
00000090: 3be7 123f f47c 193f f61b 073f f1a2 013f
000000a0: 1ddc 283f 0aee 0c3f 62e7 533f 1e43 053f
000000b0: b1db df3e 2588 2f3f 73bc 243f 8374 293f
000000c0: 2f0c e83e cd53 243f f95d 4c3f f040 393f
000000d0: 635f 0b3f 0741 513f 4a0a 303f 167f 323f
000000e0: 43d2 d93e 3dbb c23e bda5 2c3f 7a97 213f
000000f0: 0fc4 183f d9cc 3d3f 1f51 113f c054 033f
00000100: 7036 3d3f 4600 213f e077 1a3f 1194 ec3e
00000110: ace5 163f 62fb 223f c298 213f 140d 333f
00000120: 79cf 0e3f de39 1b3f a007 363f 3801 e63e
00000130: 4215 0a3f 347e 223f 0978 4f3f db2b fb3e
00000140: 691d 183f bcbb 2a3f 7076 193f dde0 cf3e
00000150: c365 263f 519a 0e3f 61df 113f 9c61 f93e
00000160: 286b 443f 1baa 243f 959a 0e3f 92bc 2e3f
00000170: fc81 343f 8871 463f 7ccf 3d3f 5574 493f
00000180: 796b f13e 420c f93e 4e5b 463f 9bd3 543f
00000190: 8679 1c3f 33a4 083f 8161 313f 4798 e23e
000001a0: 7123 ee3e 68cf f93e d7ef 073f 964f 0c3f
000001b0: 3f7a 2d3f 061a 4b3f 5f22 1c3f 79ea 443f
000001c0: 4615 3f3f 6bc9 cd3e 7f4b 1b3f 02c7 403f
000001d0: 39f7 2d3f dbb0 1f3f 55c8 3f3f c0d5 513f
000001e0: 75d1 193f 43c5 413f c2f3 383f 0485 2a3f
000001f0: a655 213f 85e2 f73e a66d f73e e28e 333f

conv_layer_2.2.bias f4 [128]
-0.052662615 -0.13061628 -0.078349255 -0.029036853 0.030193595 0.050343323 0.15108892 0.11032571
0.16334197 -0.2714582 -0.15837446 -0.0631673 -0.14767079 -0.022016605 -0.16887361 -0.0031394393
0.08803787 -0.32887113 0.093131974 -0.062245443 -0.115240805 0.0056723375 -0.032058857 0.062813744
-0.07917726 -0.18953551 0.02173895 0.23845188 -0.00048087252 -0.035563525 0.031805288 -0.28221536
0.0455356 0.12204703 -0.05482569 -0.32432687 -0.03629301 0.19780299 -0.27527994 -0.044784892
-0.057459787 -0.09928112 -0.12187324 -0.07044065 0.00924257 -0.05548905 -0.013743606 -0.058396693
0.0016034103 -0.01620586 -0.22127506 -0.06951941 0.13080576 -0.0043915003 0.15175024 -0.0041161072
-0.3122862 -0.079010054 -0.0055836495 0.21774167 -0.10699826 0.11945962 -0.18985222 0.1000341
-0.18681362 -0.06276727 -0.36287963 -0.11483934 0.0062373076 0.100570545 -0.12271328 -0.07881411
-0.1634678 -0.083987035 -0.054776818 0.10787924 -0.07135176 0.12992644 -0.2576651 -0.26734737
0.08225651 -0.058273572 0.10081732 -0.10635192 0.17260407 -0.013405903 0.105480984 -0.057770144
-0.15687974 -0.224608 -0.16300976 0.057787854 -0.08461492 -0.38395578 -0.38567224 -0.05954848
-0.16326678 0.06004634 -0.07291184 -0.26334706 -0.40853176 -0.007901828 0.20259193 -0.010672726
0.07215219 -0.18717234 -0.21196216 0.017446235 0.0033833843 0.040400933 -0.0031607114 -0.050528284
-0.003018 -0.012234044 -0.05237239 0.12667422 0.1134347 0.03292331 -0.067452826 -0.038658172
0.010230423 -0.033212617 0.081485614 -0.110112384 -0.055214476 -0.15450478 0.14438905 0.05493815
00000000: c1b4 57bd 46c0 05be 9375 a0bd b2de edbc
00000010: 8f58 f73c cd34 4e3d 0eb7 1a3e 72f2 e13d
00000020: 1e43 273e 92fc 8abe ea2c 22be db5d 81bd
00000030: 0337 17be 2b5c b4bc 34ed 2cbe 0dbf 4dbb
00000040: 334d b43d cc61 a8be fabb be3d 14f5 7ebd
00000050: 5f03 ecbd 04df b93b 2650 03bd 7ea4 803d
00000060: b027 a2bd 9915 42be e215 b23c bb2c 743e
00000070: 9e1d fcb9 0fab 11bd 4346 023d 887e 90be
00000080: 8a83 3a3d cbf3 f93d e790 60bd 2c0e a6be
00000090: fba7 14bd de8c 4a3e 7ef1 8cbe 5d70 37bd
000000a0: f45a 6bbd e653 cbbd ad98 f9bd 3043 90bd
000000b0: 266e 173c 7c48 63bd dd2c 61bc 5f31 6fbd
000000c0: 8629 d23a 27c2 84bc ee95 62be 3160 8ebd
000000d0: f2f1 053e 93e6 8fbb 6a64 1b3e 69e0 86bb
000000e0: fae3 9fbe 06d0 a1bd 0cf7 b6bb acf7 5e3e
000000f0: e721 dbbd 3fa7 f43d 9f68 42be aede cc3d
00000100: 124c 3fbe 208c 80bd 5ccb b9be e330 ebbd
00000110: 5462 cc3b eef7 cd3d 1a51 fbbd 4b69 a1bd
00000120: 1a64 27be 6501 acbd a85d 60bd caef dc3d
00000130: df20 92bd 700b 053e aeec 83be c1e1 88be
00000140: 1a76 a83d 45b0 6ebd 5079 ce3d 09cf d9bd
00000150: 1fbf 303e 6fa4 5bbc 6a06 d83d 63a0 6cbd
00000160: 15a5 20be a4ff 65be 08ec 26be f5b2 6c3d
00000170: 964a adbd da95 c4be d576 c5be 1be9 73bd
00000180: 682f 27be 27f3 753d ce52 95bd 6dd5 86be
00000190: 132b d1be ab76 01bc 4274 4f3e a8dc 2ebc
000001a0: 87c4 933d 1baa 3fbe 9c0c 59be 68eb 8e3c
000001b0: c5bb 5d3b 737b 253d f023 4fbb bff6 4ebd
000001c0: a3c9 45bb 4d71 48bc 6e84 56bd e3b6 013e
000001d0: 7450 e83d 98da 063d b524 8abd 0858 1ebd
000001e0: 819d 273c f409 08bd eee1 a63d 9a82 e1bd
000001f0: 9328 62bd 8036 1ebe b9da 133e d306 613d

conv_layer_2.2.running_mean f4 [128]
1.0409284 0.2369514 1.0818932 0.8668181 1.8560283 1.3040588 1.2787397 0.530267
1.0081747 1.1410153 0.58723474 0.9722868 0.28327402 0.6948665 1.9639584 1.0492637
0.74899757 0.6887508 1.9896203 0.63610274 1.2502528 1.0430417 0.17307258 0.2590926
4.088433 0.8574746 4.895747 0.8973 0.88006425 1.2339449 0.69175845 1.0553863
0.9215358 1.5648665 0.45716965 0.601489 0.65969723 0.95864177 0.9205564 1.2134581
0.5583762 1.0818644 0.5806297 0.82132065 1.4411165 0.362833 1.1817595 0.84019846
0.9238662 1.3072823 0.5902649 2.6878445 1.0315248 0.57585746 0.93259203 0.39496884
1.2838495 1.8323009 1.1556587 0.5465072 1.559548 0.45858967 0.4580663 0.69056123
0.34887823 1.0160823 0.9988844 2.8555117 1.035127 3.0501034 1.6092877 0.22087497
1.662784 0.7403959 0.90220284 1.0560246 0.45421317 0.7249087 0.49733284 1.0812539
1.1081883 0.94643086 0.49496567 1.5663667 0.9323953 1.4891815 0.73892546 1.0298861
0.35542107 0.13646418 0.66620356 1.0943595 1.9804646 0.47997278 0.25919235 0.76274556
1.5193697 0.75471175 0.6814917 0.3155331 0.21633983 0.7319897 1.6984125 0.91788214
4.0848913 1.872137 1.1433532 0.61970055 1.6346551 0.26129392 0.79491335 0.6150386
0.76470304 1.5397279 0.38266227 0.43644744 0.937106 0.5330656 0.44178498 0.1846916
1.0476022 0.45553854 0.7829862 0.5428532 0.44201458 3.1392014 2.2735498 1.3243659
00000000: 243d 853f 63a3 723e 7a7b 8a3f cae7 5d3f
00000010: 5692 ed3f 66eb a63f bead a33f 94bf 073f
00000020: de0b 813f ca0c 923f 0455 163f cae7 783f
00000030: 4b09 913e c5e2 313f fd62 fb3f 464e 863f
00000040: 4ebe 3f3f f951 303f e1ab fe3f a1d7 223f
00000050: 4908 a03f 6482 853f f039 313e c9a7 843e
00000060: 71d4 8240 7583 5b3f f6a9 9c40 74b5 653f
00000070: e44b 613f e8f1 9d3f 1517 313f e616 873f
00000080: c5e9 6b3f 8c4d c83f 2412 ea3e 2ffb 193f
00000090: ebe1 283f 8c69 753f 96a9 6b3f 9852 9b3f
000000a0: bef1 0e3f 887a 8a3f 26a4 143f 1242 523f
000000b0: 8176 b83f 3fc5 b93e e543 973f 3f17 573f
000000c0: 7f82 6c3f 0755 a73f 9a1b 173f a505 2c40
000000d0: 0109 843f 656b 133f 5abe 6e3f 5b39 ca3e
000000e0: 2e55 a43f d688 ea3f a0ec 933f e5e7 0b3f
000000f0: 459f c73f 44cc ea3e ab87 ea3e 9fc8 303f
00000100: 2ba0 b23e fc0e 823f e3b6 7f3f b4c0 3640
00000110: 0b7f 843f e534 4340 24fd cd3f 0c2d 623e
00000120: 1bd6 d43f 968a 3d3f c4f6 663f d02b 873f
00000130: a18e e83e 9e93 393f 69a2 fe3e 8766 8a3f
00000140: 1dd9 8d3f 4b49 723f 246c fd3e b47e c83f
00000150: 75b1 6e3f 809d be3f 382a 3d3f 4fd3 833f
00000160: c0f9 b53e 44bd 0b3e 518c 2a3f f913 8c3f
00000170: dd7f fd3f febe f53e dcb4 843e 4b43 433f
00000180: b57a c23f ca34 413f 3d76 2e3f 8e8d a13e
00000190: 3088 5d3e ad63 3b3f 9565 d93f 53fa 6a3f
000001a0: 6eb7 8240 2fa2 ef3f 6659 923f b2a4 1e3f
000001b0: 613c d13f 51c8 853e 717f 4b3f 2b73 1d3f
000001c0: 94c3 433f ce15 c53f 4fec c33e 0a76 df3e
000001d0: 2ee6 6f3f fd76 083f a431 e23e cb1f 3d3e
000001e0: d417 863f 593c e93e c971 483f 6df8 0a3f
000001f0: bc4f e23e ade8 4840 d781 1140 d284 a93f

conv_layer_2.2.running_var f4 [128]
4.3369293 0.88726395 5.544105 4.330584 8.091753 6.7712126 5.8693943 2.7701204
5.118572 5.474002 2.6701446 4.727721 1.2043523 2.9593499 10.252457 4.682208
4.423321 2.092019 12.805675 3.5251887 7.2327924 5.781133 0.4537784 1.4174765
27.692875 3.6906059 26.7582 5.869624 4.3492184 5.2363896 2.79508 4.733281
4.161792 7.971672 2.3811617 2.0755627 2.9946625 4.8240166 5.078272 10.186842
2.8284295 8.401738 2.2826524 4.26643 8.236058 1.3933817 5.660165 4.0416694
4.9860406 4.8845253 2.3699205 12.810729 4.5883374 3.178472 3.8102326 2.494707
6.2472167 12.688951 4.9259696 2.4789095 8.023874 1.9124705 2.665825 3.6824458
2.1864502 5.9574466 4.0164366 18.886238 6.5545444 17.255472 6.270801 1.0861228
7.561313 3.8317893 3.9050283 5.0100827 1.7221624 3.151288 2.0260475 4.9390163
4.390138 4.4413104 1.5694062 7.003393 3.7266614 7.4095616 3.6488698 7.152718
1.2820374 0.6416988 3.2882888 5.2582273 12.249296 2.09921 1.1685936 3.1955485
7.767396 4.1882296 2.6595829 1.6426383 1.3724328 3.0941372 8.419834 4.281973
24.644537 7.373157 5.125797 2.6582382 11.247139 1.1953773 3.680736 2.3051345
4.3799076 11.548709 1.2378215 2.6185923 3.9054387 2.3080187 1.916 0.68619657
6.3588576 4.087655 3.4762444 2.2043092 2.203629 10.233354 13.624497 6.6398177
00000000: 20c8 8a40 bb23 633f 4f69 b140 2594 8a40
00000010: d277 0141 c6ad d840 14d2 bb40 a749 3140
00000020: 58cb a340 062b af40 a6e3 2a40 7e49 9740
00000030: 3728 9a3f fd65 3d40 100a 2441 a6d4 9540
00000040: d88b 8d40 a4e3 0540 0be4 4c41 b19c 6140
00000050: 0973 e740 0bff b840 a455 e83e df6f b53f
00000060: 028b dd41 e332 6c40 cb10 d641 f6d3 bb40
00000070: cc2c 8b40 8190 a740 97e2 3240 0a77 9740
00000080: 662d 8540 f017 ff40 f464 1840 05d6 0440
00000090: 8da8 3f40 585e 9a40 3481 a240 4efd 2241
000000a0: fd04 3540 856d 0641 fa16 1240 9886 8840
000000b0: e5c6 0341 555a b23f 1220 b540 5b55 8140
000000c0: a58d 9f40 084e 9c40 c7ac 1740 bff8 4c41
000000d0: a9d3 9240 166c 4b40 dada 7340 48a9 1f40
000000e0: 33e9 c740 f105 4b41 8ba1 9d40 74a6 1e40
000000f0: ca61 0041 d5cb f43f e09c 2a40 31ad 6b40
00000100: cdee 0b40 67a3 be40 a686 8040 0417 9741
00000110: d4be d140 350b 8a41 67aa c840 1206 8b3f
00000120: 47f6 f140 093c 7540 fceb 7940 9952 a040
00000130: d16f dc3f b4ae 4940 c3aa 0140 6c0c 9e40
00000140: 037c 8c40 371f 8e40 4de2 c83f cc1b e040
00000150: 9f81 6e40 211b ed40 1587 6940 11e3 e440
00000160: cd19 a43f 5f46 243f 5373 5240 6643 a840
00000170: 1efd 4341 7559 0640 7a94 953f de83 4c40
00000180: 828e f840 fa05 8640 9b36 2a40 f941 d23f
00000190: e1ab af3f 5806 4640 a4b7 0641 ec05 8940
000001a0: 0328 c541 e7f0 eb40 8706 a440 9320 2a40
000001b0: 48f4 3341 2002 993f 2e91 6b40 5387 1340
000001c0: 3428 8c40 83c7 3841 ef70 9e3f 0497 2740
000001d0: b5f2 7940 94b6 1340 7d3f f53f 94aa 2f3f
000001e0: c37b cb40 12ce 8240 ca7a 5e40 6713 0d40
000001f0: 4208 0d40 d1bb 2341 f1fd 5941 6379 d440

classifier.1.weight f4 [2, 2048]
-0.012191218 0.008099972 0.013910761 0.0032536015 -0.033662025 0.026044928 0.012491527 -0.0045772092
-0.011114551 0.0056320885 0.01549641 0.0058473605 -0.0058098887 -0.0077470057 0.011564192 0.005649227
-0.011574115 0.019265555 -0.010873332 -0.019413562 0.028957533 0.0016417726 0.0066657593 -0.017199298
0.037982795 -0.0061511644 0.012508306 0.009934536 0.033367492 -0.05796436 -0.025245339 0.013488233
0.014611754 0.010916865 -0.051567376 -0.013239883 0.06583056 0.023165727 -0.01018176 -0.010757901
0.030189438 -0.031448837 -0.021305475 -0.030655105 0.030454315 -0.022997407 -0.012922996 0.03510289
-0.0021796206 0.007107483 0.04713213 -0.013542378 0.004056767 -0.040618263 0.0019228244 0.020439055
-0.022974577 -0.007252012 0.01326465 0.010727077 -0.0021834946 0.00230237 -0.04955079 0.0037778004
-0.0141358785 -0.03141373 0.013651054 -0.01154984 0.008001551 0.017557697 0.008492164 -0.02942574
0.012853067 -0.0061401734 0.02352683 -0.032561727 8.9800014e-05 0.027951965 -0.0034804696 0.035201613
0.02599086 0.011347199 -0.008771771 0.019304512 -0.008380349 -0.0041412096 0.021693064 0.02586168
-0.010659345 -0.014419803 -0.002608316 -0.011086056 -0.0019425579 0.0040802886 0.00958428 -0.033840057
0.008353086 -0.018026268 0.017178318 0.012967513 0.019251361 -0.014347389 0.027145118 -0.018693395
0.037170015 0.013162172 -0.0065527232 -0.012140869 -0.008090571 0.01568777 0.018509433 0.0032132578
-0.03867718 -0.022138158 -0.040554367 -0.0060615735 -0.0036774366 -0.07492572 -0.015473175 0.015975015
-0.009796432 -0.021548817 0.010046146 0.022411484 0.008519736 0.020380814 0.007535088 0.009836403
0.002478709 -0.0048635798 0.039364636 0.0073299133 0.02510898 0.0070799817 -0.02754028 -0.023856202
-0.0049247583 0.015068185 -0.003881201 0.032668836 0.0032564169 -0.001510246 -0.014672163 -0.0012268728
-0.00033610786 -0.047874235 -0.04022942 0.040349435 -0.001910282 -0.046438638 0.01796995 0.007901327
-0.021785393 -0.020227548 0.0069681555 -0.017789083 0.011635361 0.017461076 0.031396378 0.00043501984
-0.03726721 0.021543235 0.05767569 0.015286465 0.0063054473 0.035619184 0.02635194 -0.020282373
0.0056745834 -0.058423784 0.0061948686 -0.018945593 0.0144435335 0.0040447284 -0.004536329 0.02800879
-0.017800633 0.022089705 -0.031408526 0.003172228 0.040770937 0.030810297 0.003053601 -0.018757595
-0.012305466 -0.008847373 0.025823317 -0.024949232 0.018489914 0.035325214 -0.012302658 0.0044381963
-0.0019733 -0.030930152 -0.03726395 -0.023022085 0.033741694 -0.046726886 -0.03365612 -0.019114705
0.025595095 0.0051489486 -0.013607921 -0.03489641 0.015001357 -0.0016086529 -0.042165454 0.0039396184
-0.01660666 -0.017430717 0.021301528 -0.03836159 0.021015817 -0.02578789 0.022300558 0.019860366
-0.0032222685 0.039668996 0.0023209143 0.046380877 -0.04144033 0.04222135 -0.056521192 -0.006189835
-0.030619197 -0.014407345 -0.008357402 0.008092597 0.018904626 0.059992053 0.0042186286 -0.0066158306
-0.028524842 0.014697724 0.002478873 -0.004190116 -0.020826858 -0.019334424 0.017600022 0.00442822
0.052377798 0.007568036 -0.051860496 0.02056737 -0.022477407 0.002243812 -0.038980123 -0.038892917
-0.031733323 0.0067647058 0.0065575466 0.007298879 -0.04312995 -0.061595056 0.008796157 0.030966228
00000000: adbd 47bc bfb5 043c f6e9 633c 603a 553b
00000010: 31e1 09bd 2c5c d53c 43a9 4c3c 6afc 95bb
00000020: ce19 36bc 628d b83b a8e4 7d3c 379b bf3b
00000030: e160 bebb 98da fdbb bd77 3d3c 271d b93b
00000040: 5ba1 3dbc ccd2 9d3c 0f26 32bc 3109 9fbc
00000050: 5938 ed3c bf30 d73a 716c da3b 8be5 8cbc
00000060: d993 1b3d b58f c9bb a3ef 4c3c 77c4 223c
00000070: 5aac 083d 096c 6dbd 50cf cebc c0fd 5c3c
00000080: 2366 6f3c a7dc 323c 5038 53bd 18ec 58bc
00000090: 2cd2 863d 0dc6 bd3c 66d1 26bc e841 30bc
000000a0: d74f f73c 7fd0 00bd d288 aebc 6a20 fbbc
000000b0: 547b f93c 0f65 bcbc f9ba 53bc 0cc8 0f3d
000000c0: f7d7 0ebb e4e5 e83b 9f0d 413d dae0 5dbc
000000d0: a1ee 843b 565f 26bd 4807 fc3a ce6f a73c
000000e0: 2e35 bcbc 49a2 edbb f953 593c 9fc0 2f3c
000000f0: f618 0fbb 5ce3 163b c5f5 4abd f994 773b
00000100: 2c9a 67bc afab 00bd aca8 5f3c 8a3b 3dbc
00000110: f018 033c 29d5 8f3c b822 0b3c 400e f1bc
00000120: ac95 523c 8233 c9bb 57bb c03c 725f 05bd
00000130: 0453 bc38 85fb e43c 9718 64bb 912f 103d
00000140: c9ea d43c 9ae9 393c 79b7 0fbc 7f24 9e3c
00000150: bb4d 09bc fcb2 87bb a7b5 b13c e0db d33c
00000160: 89a4 2ebc 0a41 6cbc 48f0 2abb 4aa2 35bc
00000170: 6d9d feba f1b3 853b 6207 1d3c df9b 0abd
00000180: 62db 083c d3ab 93bc 8bb9 8c3c b175 543c
00000190: 08b5 9d3c 5011 6bbc 705f de3c e422 99bc
000001a0: 963f 183d 27a6 573c 3ab8 d6bb 7fea 46bc
000001b0: 508e 04bc a383 803c 18a1 973c 8595 523b
000001c0: f66b 1ebd 155b b5bc 561c 26bd 2aa0 c6bb
000001d0: 2601 71bb a872 99bd 3383 7dbc 09de 823c
000001e0: 3781 20bc 2587 b0bc 9798 243c 4a98 b73c
000001f0: 5d96 0b3c aaf5 a63c e6e8 f63b dd28 213c
00000200: d671 223b aa5e 9fbb d03c 213d c52f f03b
00000210: 59b1 cd3c 31ff e73b 279c e1bc 156e c3bc
00000220: de5f a1bb 8ce0 763c bf5b 7ebb c2cf 053d
00000230: 9c69 553b 72f3 c5ba 8363 70bc 05cf a0ba
00000240: a237 b0b9 c617 44bd 9bc7 24bd 7345 253d
00000250: 6d62 faba 7136 3ebd b735 933c 9174 013c
00000260: 4877 b2bc 3eb4 a5bc 2055 e43b 69ba 91bc
00000270: 3ea2 3e3c 880a 8f3c 7d99 003d 6013 e439
00000280: 81a5 18bd 707b b03c 583d 6c3d 1574 7a3c
00000290: ed9d ce3b 6ce5 113d 06e0 d73c 3827 a6bc
000002a0: dbf1 b93b c74d 6fbd 53fe ca3b ca33 9bbc
000002b0: 92a4 6c3c a489 843b 7ca5 94bb b172 e53c
000002c0: a2d2 91bc 78f5 b43c 3aa6 00bd 28e5 4f3b
000002d0: 6dff 263d e065 fc3c ec1e 483b 87a9 99bc
000002e0: de9c 49bc 92f4 10bc 6c8b d33c 5562 ccbc
000002f0: 2978 973c 2cb1 103d 1691 49bc 4a6e 913b
00000300: 7b52 01bb 3b61 fdbc 15a2 18bd d098 bcbc
00000310: bb34 0a3d b164 3fbd 00db 09bd 7196 9cbc
00000320: ceac d13c 83b8 a83b c2f3 5ebc 8aef 0ebd
00000330: 40c8 753c 6fd9 d2ba afb5 2cbd ea17 813b
00000340: b10a 88bc ddca 8ebc 8b80 ae3c 0b21 1dbd
00000350: 5d29 ac3c 2041 d3bc a9af b63c 35b2 a23c
00000360: b22c 53bb f57b 223d 7b1a 183b e0f9 3d3d
00000370: 56bd 29bd 4bf0 2c3d c482 67bd 19d4 cabb
00000380: 1cd5 fabc c90c 6cbc 7ced 08bc d096 043c
00000390: e0dd 9a3c 3aba 753d 6c3c 8a3b 9cc9 d8bb
000003a0: eeac e9bc b9ce 703c 9674 223b 3e4d 89bb
000003b0: 169d aabc 3a63 9ebc ec2d 903c 9a1a 913b
000003c0: 1a8a 563d 4afd f73b ac6b 54bd e77c a83c
000003d0: 8a22 b8bc eb0c 133b 9fa9 1fbd 2e4e 1fbd
000003e0: cdfa 01bd 77aa dd3b b0e0 d63b 6f2b ef3b
000003f0: 08a9 30bd 194b 7cbd c21d 103c e3ac fd3c

classifier.1.bias f4 [2]
0.014806802 0.014152416
00000000: 3b98 723c 89df 673c
